…
Now with all the necessary parameters ready, let us define the CNN model. [TODO: describe the model structure and the use of ImageDataGenerator to augment training data]
[TODO: insert the train_cnn function here]

The network structure is shown in the following table. We can see this network has a total of 1167845 parameters. [NOTE for Ruihan: this table is the output of the model.summary() call]
_________________________________________________________________
Layer (type)                 Output Shape              Param #   
=================================================================
conv2d_1 (Conv2D)            (None, 159, 159, 32)      160       
_________________________________________________________________
max_pooling2d_1 (MaxPooling2 (None, 79, 79, 32)        0         
_________________________________________________________________
conv2d_2 (Conv2D)            (None, 78, 78, 32)        4128      
_________________________________________________________________
max_pooling2d_2 (MaxPooling2 (None, 39, 39, 32)        0         
_________________________________________________________________
conv2d_3 (Conv2D)            (None, 38, 38, 64)        8256      
_________________________________________________________________
max_pooling2d_3 (MaxPooling2 (None, 19, 19, 64)        0         
_________________________________________________________________
flatten_1 (Flatten)          (None, 23104)             0         
_________________________________________________________________
dense_1 (Dense)              (None, 50)                1155250   
_________________________________________________________________
dropout_1 (Dropout)          (None, 50)                0         
_________________________________________________________________
dense_2 (Dense)              (None, 1)                 51        
=================================================================
Total params: 1,167,845
Trainable params: 1,167,845
Non-trainable params: 0
[TODO: add training result here]

The output of the last two epoches is shown below. We can see that on the training set, the CNN reaches an accuracy of 93.63% and on the verification set, it has an accuracy of 90.87%. The verification accura
…
ly the same amount of parameters as the previous CNN to make a more meaningful comparison.
[TODO: insert the train_feedforward function here]

The network structure is shown in the following table. We can see this network has a total of 1179327 parameters. [NOTE: this table is the output of the model.summary() call] [TODO: put the following output in code format]
_________________________________________________________________
Layer (type)                 Output Shape              Param #   
=================================================================
flatten_1 (Flatten)          (None, 25600)             0         
_________________________________________________________________
dense_1 (Dense)              (None, 46)                1177646   
_________________________________________________________________
dropout_1 (Dropout)          (None, 46)                0         
_________________________________________________________________
dense_2 (Dense)              (None, 35)                1645      
_________________________________________________________________
dropout_2 (Dropout)          (None, 35)                0         
_________________________________________________________________
dense_3 (Dense)              (None, 1)                 36        
=================================================================
Total params: 1,179,327
Trainable params: 1,179,327
Non-trainable params: 0

The output of the last two epoches is shown below. We can see that on the training set, the feedforward network reaches an accuracy of 74.54% and on the verification set, it has an accuracy of 62.50%. With the same number of iterations and ro
…
